trained_models/generator_frozen_lake_optim.ckpt (torch, 11941 bytes, 4 tensors)

main.0.weight f4 [128, 12]
0.17073105 0.09143009 -0.16001879 0.2681802 0.17146671 0.11037053 0.2519314 -0.1579452
0.09595611 0.09090634 -0.072307535 -0.10966341 -0.11554207 -0.1658113 0.246626 0.04535649
-0.2068437 0.19146523 0.12472929 0.92563635 0.7895792 -0.14539042 -0.17961173 -0.077834055
-0.3601071 0.38749322 -0.1803673 0.18985577 -0.047106035 0.10335175 -0.0057412004 0.55130744
-0.059853576 -0.04149324 0.14261882 0.16243522 0.05856524 -0.31137186 -0.15878548 0.09350652
-0.19145049 0.29182905 0.3249913 -0.17316706 -0.2581731 0.16524209 0.081312165 0.16150068
-0.2615465 -0.09092873 -0.049063712 -0.014034846 -0.23865704 -0.32366052 0.03601915 -0.25044447
0.14233294 0.15610771 -0.12649736 0.03350382 -0.27813867 0.06251847 0.2203158 -0.10772284
-0.3380731 -0.23324856 -0.09752367 -0.025672069 -0.1913404 -0.09447495 0.26704806 0.24623422
-0.01681746 0.17074865 0.13139911 0.09071795 -0.16745321 0.05749263 -0.15656689 -0.19342594
0.048829526 -0.24857095 0.21060613 -0.40937755 -0.009442624 0.02652467 0.83136547 -0.04835995
0.044881366 0.15809947 -0.3726116 0.0035139243 0.49682656 0.07284338 -0.42622337 -0.1046746
0.14164965 0.12427148 -0.6445642 -0.14887863 -0.1766584 0.20982637 -0.20024776 -0.5042455
-0.07982356 -0.57266366 0.25332415 0.08403025 0.46614578 0.030511372 0.1223553 0.09166184
0.04610122 0.079389825 -0.30073905 -0.15454406 0.65110385 -0.46146518 0.18322094 -0.18522885
-0.7453139 -0.21081196 0.09257298 0.12228319 0.14417027 -0.17809433 -0.08763129 0.122105174
-0.80302125 0.9493862 -0.3999058 -0.12893164 0.41152766 -0.027648909 0.30090213 0.08979302
0.009328578 0.30533963 0.36589983 -0.22399935 0.104510285 0.19814973 0.1789808 -0.12694936
-0.48311138 -0.22168146 0.10532829 0.03886761 0.04727005 0.000921915 -0.08486601 -0.05934618
0.21091045 -0.62267745 0.21483847 -0.24631472 0.13736258 -0.2387734 -0.04138566 -0.04832097
-0.2389558 -0.19918983 -0.34452218 0.22992766 -0.22386456 -0.14709699 0.04353714 -0.3052907
-0.13542911 -0.14333172 0.073035486 -0.25305992 -0.0072142165 0.06373938 0.27075365 0.5907832
0.5085871 -0.48277542 -0.25480816 -0.9134546 -0.25196967 -0.016935268 0.4266517 -0.017479263
0.1998401 -0.1003233 0.00071497215 0.074872725 0.09591505 -0.24049984 0.26950797 0.012527887
-0.272985 -0.1383252 -0.31641117 -0.13034384 0.109870106 0.1608265 -0.018616911 0.032491185
-0.5345477 1.1317571 0.2529254 -0.84878117 0.06874917 0.24388771 -0.03682438 -0.1114372
-0.15545616 -0.107911274 0.010126727 0.2596307 -0.097799584 0.22485414 -0.4033388 -0.61499655
0.026775112 0.088290185 0.23584689 -0.24631718 0.02191311 -0.28436515 0.20746213 -0.010414052
-0.19332053 -0.179472 0.23345971 -0.31034994 -0.03902706 0.31605366 -0.1550202 0.17205758
0.1871021 0.23225728 0.2130921 0.2654262 0.0033440494 0.19070867 0.24170835 -0.08703457
0.28603804 -0.21736124 0.052444413 -0.062008712 -0.13730618 -0.1329463 -0.008312711 -0.585843
-0.28135264 -0.31338808 0.35523033 -0.29118246 0.008994 -0.24146043 -0.2381958 0.15415998
00000000: 1fd4 2e3e b33f bb3d f7db 23be ea4e 893e
00000010: f894 2f3e f209 e23d 27fd 803e 63bc 21be
00000020: a384 c43d 1a2d ba3d f915 94bd 3697 e0bd
00000030: 52a1 ecbd 70ca 29be 878b 7c3e bac7 393d
00000040: d6ce 53be 760f 443e 1272 ff3d 81f6 6c3f
00000050: dd21 4a3f 3ae1 14be 23ec 37be 7667 9fbd
00000060: f55f b8be 8365 c63e 35b2 38be 8d69 423e
00000070: 42f2 40bd 15aa d33d ae20 bcbb 7c22 0d3f
00000080: 0629 75bd d1f4 29bd ab0a 123e 6b55 263e
00000090: 1be2 6f3d 226c 9fbe a998 22be 5980 bf3d
000000a0: 990b 44be 9e6a 953e 4265 a63e b552 31be
000000b0: 442f 84be 3935 293e fe86 a63d 6f60 253e
000000c0: 6ce9 85be d838 babd 08f7 48bd 69f2 65bc
000000d0: 8362 74be d5b6 a5be d188 133d 423a 80be
000000e0: babf 113e b3da 1f3e 8688 01be 4d3b 093d
000000f0: 3168 8ebe af09 803d 779a 613e cb9d dcbd
00000100: eb17 adbe b6d8 6ebe 7dba c7bd 3b4e d2bc
00000110: bdee 43be 157c c1bd 86ba 883e d324 7c3e
00000120: c5c4 89bc bcd8 2e3e 7d8d 063e 55ca b93d
00000130: db78 2bbe 647d 6b3d 1253 20be 7311 46be
00000140: 7801 483d 6289 7ebe 22a9 573e ef99 d1be
00000150: 3cb5 1abc 444a d93c 5ed4 543f 1515 46bd
00000160: 86d5 373d d4e4 213e f3c6 bebe de49 663b
00000170: 0d60 fe3e e92e 953d f339 dabe a35f d6bd
00000180: 9b0c 113e 0c82 fe3d 2902 25bf a473 18be
00000190: f1e5 34be b9dc 563e c00d 4dbe 3c16 01bf
000001a0: 897a a3bd 169a 12bf b4b3 813e 0d18 ac3d
000001b0: a9aa ee3e fcf2 f93c 6a95 fa3d 34b9 bb3d
000001c0: a2d4 3c3d 2297 a23d 78fa 99be cc40 1ebe
000001d0: beae 263f 2a45 ecbe 459e 3b3e a2ac 3dbe
000001e0: e4cc 3ebf 17df 57be e796 bd3d 9c6f fa3d
000001f0: 5fa1 133e 5c5e 36be 0978 b3bd 4712 fa3d
00000200: cd92 4dbf f90a 733f 74c0 ccbe a806 04be
00000210: c1b3 d23e f77f e2bc d80f 9a3e 67e5 b73d
00000220: e4d6 183c 7a55 9c3e 3957 bb3e 1660 65be
00000230: 7d09 d63d c3e7 4a3e be46 373e 03ff 01be
00000240: 605a f7be 7700 63be 5cb6 d73d a533 1f3d
00000250: 3d9e 413d abac 713a 3bce adbd fb14 73bd
00000260: e9f8 573e ca67 1fbf 9efe 5b3e ed39 7cbe
00000270: c7a8 0c3e 0481 74be 0384 29bd 36ec 45bd
00000280: d4b0 74be 6bf8 4bbe 3665 b0be 2872 6b3e
00000290: c03c 65be 98a0 16be 0054 323d 104f 9cbe
000002a0: eead 0abe 8dc5 12be a193 953d 1291 81be
000002b0: 3c65 ecbb cb89 823d 39a0 8a3e 913d 173f
000002c0: c432 023f 572e f7be 3776 82be 29d8 69bf
000002d0: 2b02 81be d5bb 8abc 1772 da3e ac30 8fbc
000002e0: e2a2 4c3e 4d76 cdbd f86c 3b3a df56 993d
000002f0: 1c6f c43d 9745 76be f3fc 893e c441 4d3c
00000300: b1c4 8bbe 1fa5 0dbe a500 a2be db78 05be
00000310: 9403 e13d b4af 243e 7e82 98bc 7a15 053d
00000320: 1ed8 08bf 6bdd 903f 707f 813e b949 59bf
00000330: 5dcc 8c3d b3bd 793e 29d5 16bd 3039 e4bd
00000340: e62f 1fbe 9600 ddbd 92ea 253c 51ee 843e
00000350: 264b c8bd 2a40 663e 6c82 cebe 6a70 1dbf
00000360: 7b57 db3c 7cd1 b43d d981 713e 923a 7cbe
00000370: 1f83 b33c 4f98 91be f470 543e b39f 2abc
00000380: d1f5 45be 82c7 37be 1010 6f3e 30e6 9ebe
00000390: d7da 1fbd c9d1 a13e 9ebd 1ebe dd2f 303e
000003a0: b197 3f3e dad4 6d3e d134 5a3e f1e5 873e
000003b0: d727 5b3b 2249 433e 6582 773e 2e3f b2bd
000003c0: 9473 923e f293 5ebe f4cf 563d d9fc 7dbd
000003d0: fe99 0cbe 1323 08be 0932 08bc cff9 15bf
000003e0: 740d 90be 6774 a0be c0e0 b53e de15 95be
000003f0: 925b 133c 6741 77be 9ae9 73be 1ddc 1d3e

main.0.bias f4 [128]
-0.04412754 0.023555381 0.0685053 -0.17961906 -0.23510182 0.22500683 -0.069551475 0.33397055
-0.11335211 -0.22713156 0.077778764 -0.07204147 -0.15612406 -0.03342925 -0.14530802 -0.04695336
-0.15688074 -0.015575165 -0.19384708 0.17909661 -0.3003895 0.022696227 0.026822673 0.2213494
0.12060087 -0.100447066 -0.027560223 -0.1916716 -0.045129422 -0.1907163 -0.06750201 -0.3102315
0.14621943 -0.01252714 -0.04831675 0.11918672 0.05082623 -0.18718688 0.29080734 -0.3576424
0.3175883 0.005113097 0.0407173 -0.21732198 0.13854669 -0.19576696 0.08014118 -0.1030699
0.13030055 -0.23472144 0.17191975 0.20283628 0.005872174 0.22876994 0.2951112 0.027518364
-0.13488087 -0.3724744 -0.03818107 0.14705294 -0.024506558 0.13223074 -0.18628456 -0.079763405
0.12090641 0.28991896 -0.07571621 0.033988446 0.25573203 0.2914257 -0.29109067 -0.036424126
0.008254763 0.22265068 -0.2806345 0.00471166 -0.22658472 -0.33441576 -0.20977578 0.19605778
0.013439092 -0.047123764 -0.21719973 0.079842985 0.058886435 -0.19362023 -0.089299075 -0.116218895
-0.20536739 0.3536113 0.013557082 -0.067172 -0.20820166 -0.09087337 -0.0436916 0.025379729
-0.010420171 -0.102057144 0.035614613 -0.056759402 0.115536146 -0.08028998 0.27971116 0.09161803
0.19196351 -0.1785039 -0.17902546 0.16803797 0.0064896955 -0.112520635 0.08107191 0.27902937
0.26060042 -0.21788336 -0.21474308 -0.23102635 0.12773345 0.20755804 -0.09454052 0.085270934
0.031926308 0.045427177 -0.055429704 -0.035685375 -0.27048954 0.11502027 -0.28198764 0.26010364
00000000: 14bf 34bd 37f7 c03c 824c 8c3d 0fee 37be
00000010: 88be 70be 3168 663e 0171 8ebd 30fe aa3e
00000020: 2725 e8bd 2d95 68be 794a 9f3d 7a8a 93bd
00000030: fcde 1fbe 1ced 08bd a0cb 14be 2b52 40bd
00000040: 58a5 20be fa2e 7fbc d97f 46be 1a65 373e
00000050: a7cc 99be 70ed b93c 39bb db3c 6ba9 623e
00000060: 97fd f63d 31b7 cdbd fac5 e1bc 8f45 44be
00000070: a1d9 38bd 224b 43be 7e3e 8abd aad6 9ebe
00000080: 8cba 153e a23e 4dbc c9e7 45bd 2b18 f43d
00000090: 2a2f 503d ebad 3fbe b3e4 943e e81c b7be
000000a0: ef9a a23e c48b a73b 2fc7 263d a789 5ebe
000000b0: 2fdf 0d3e 2277 48be 0f21 a43d 5016 d3bd
000000c0: 826d 053e d15a 70be bb0b 303e 50b4 4f3e
000000d0: 5e6b c03b ab42 6a3e d118 973e 316e e13c
000000e0: 361e 0abe f7b4 bebe c163 1cbd 0c95 163e
000000f0: fac1 c8bc 7f67 073e 61c1 3ebe ff5a a3bd
00000100: c89d f73d 4270 943e 1a11 9bbd 7837 0b3d
00000110: 4fef 823e c035 953e d609 95be 7731 15bd
00000120: fc3e 073c 8afe 633e 53af 8fbe 4564 9a3b
00000130: d305 68be 8b38 abbe 76cf 56be 5fc3 483e
00000140: a32f 5c3c d904 41bd 9b69 5ebe b884 a33d
00000150: e732 713d 6244 46be 6fe2 b6bd 2c04 eebd
00000160: d44b 52be 8a0c b53e 861e 5e3c 7991 89bd
00000170: d132 55be d11b babd f7f5 32bd 26e9 cf3c
00000180: 5db9 2abc 5603 d1bd a1e0 113d 8c7c 68bd
00000190: 379e ec3d 136f a4bd 4d36 8f3e 3ca2 bb3d
000001a0: 1592 443e bac9 36be 7352 37be 2512 2c3e
000001b0: 83a7 d43b 3871 e6bd 0809 a63d f0dc 8e3e
000001c0: 6b6d 853e d11c 5fbe 9ce5 5bbe 2c92 6cbe
000001d0: 8fcc 023e 188a 543e 769e c1bd 87a2 ae3d
000001e0: 29c5 023d d911 3a3d 420a 63bd d42a 12bd
000001f0: 9b7d 8abe bf8f eb3d af60 90be 4e2c 853e

main.2.weight f4 [7, 128]
0.20147918 -0.6312708 0.17510349 0.46073583 -0.17966272 -0.07056579 -0.2508747 -1.5819367
-0.0844517 0.117912054 -0.19381537 0.10691935 -0.116240636 -0.074201405 -0.36279562 -0.840976
-0.14746805 -0.18017234 -0.19283046 0.12784289 -0.22860676 -0.05099393 -0.09252718 -0.19456851
-0.18746258 -0.79173946 -0.111052364 -0.16969286 -0.5216693 -0.16303094 -0.117165625 0.42546204
-0.17707081 0.2601113 -0.73133814 0.1773458 0.04578777 0.07862357 0.09037109 0.9326148
-1.0939884 0.08206852 0.14728056 -0.08395198 -0.12092653 0.051135577 -0.7384724 -0.01383246
0.060809005 -0.15500765 0.44327474 -0.16031781 -0.60141253 0.14710577 -0.30073434 0.39067033
-0.16439669 -0.31665915 0.21075158 0.20194055 0.07061325 0.10006239 0.6496735 0.12135451
0.16525567 0.7413179 -0.14173102 0.16330661 0.8287063 0.17894523 -0.1038205 0.11071262
0.2094547 -1.1626956 -0.14909543 -0.09255716 0.13461956 0.13033074 0.38990986 -0.2253236
-0.018708171 0.14434794 0.5801498 0.111250274 -1.3235401 0.47731772 0.08942123 -0.030840121
-0.035784464 -0.63046587 0.19818811 -1.3251697 0.03814387 0.49859238 -0.07123013 0.1041933
-0.06478131 -0.16222003 -0.13646425 -0.14691319 0.124659285 -0.17002995 -0.19338089 -0.18502875
0.60172546 0.5496933 0.18868394 -0.023629045 -0.15453179 -0.10908058 0.17168972 -0.118961334
-0.06095521 1.4084129 0.10830633 0.16138582 -0.58054245 0.1787235 -0.044731017 0.12115602
-0.21115477 -0.03332658 0.13048345 1.3150172 0.04698154 -0.10450517 -0.20273195 0.05083782
0.126782 1.0407598 0.198169 1.1490014 -0.054974575 -0.053553443 -0.13276 0.51489824
-0.1721564 0.0679678 -0.010540484 0.08290863 -0.18902522 -0.0940322 0.18349081 -0.54388386
-0.23457675 -0.1315201 -0.16861491 0.17339824 -0.06867429 -0.13207653 -0.15162008 -0.061936483
-0.07766585 0.060447466 -0.18650562 -0.093126565 -1.2777017 -0.15362714 -0.02063845 0.8564257
-0.18715505 0.107450485 -0.9841991 0.17997326 0.05417746 0.41461378 0.030707078 0.27104846
-1.0273492 0.11923449 0.13534 -0.16776109 -0.6857721 0.16963929 0.6546554 -0.028725257
0.019662665 -0.028272467 0.32889622 -0.085629314 0.41391742 0.16132936 -1.0205302 1.3222407
-0.021020178 0.22757068 0.15317044 0.007152646 0.101522416 0.22408967 -0.85513836 0.15874015
0.066326104 -0.81753904 -0.19621295 0.046833724 -0.56972396 0.09065007 -0.18059593 0.06455664
0.07153329 2.014875 -0.10575366 -0.17097759 0.2512649 -0.738861 1.251538 -0.17081095
-1.54023 0.14417066 -0.73885065 -0.58910143 1.2155001 -0.5058831 0.1810118 -0.029003786
-0.32121775 -0.8625263 0.013533345 -0.21280733 0.041238096 -0.78991044 -0.1704004 0.09565857
0.87015146 -0.1564584 -0.13108775 0.5025726 0.12750179 -0.15221211 -0.19041954 -0.10395746
0.42093632 -1.305377 0.09698546 -0.23983264 -0.032060403 -0.17742392 0.17569949 -0.21406323
-0.14916183 -1.0592359 0.06605525 0.091157496 -0.5057711 0.15092339 -0.14214677 0.1865751
-0.03556082 -0.28383175 0.18010639 0.066671014 0.12966076 -0.13450281 -0.1202641 0.0199038
00000000: 8f50 4e3e f79a 21bf 544e 333e 91e5 eb3e
00000010: 81f9 37be cc84 90bd a672 80be e77c cabf
00000020: 03f5 acbd e07b f13d 8977 46be 88f8 da3d
00000030: 920f eebd e8f6 97bd 59c0 b9be 344a 57bf
00000040: dd01 17be 197f 38be 5975 45be 3fe9 023e
00000050: e417 6abe 03df 50bd e47e bdbd f83c 47be
00000060: 31f6 3fbe 70af 4abf 6c6f e3bd f7c3 2dbe
00000070: 1f8c 05bf 95f1 26be 88f4 efbd 29d6 d93e
00000080: 0d52 35be 4f2d 853e fa38 3bbf 239a 353e
00000090: f58b 3b3d 6505 a13d 7a14 b93d d8bf 6e3f
000000a0: d007 8cbf 8a13 a83d b7d0 163e 04ef abbd
000000b0: 54a8 f7bd 8a73 513d 870c 3dbf 8ba1 62bc
000000c0: dd12 793d 53ba 1ebe e8f4 e23e 5a2a 24be
000000d0: 2cf6 19bf e5a2 163e daf9 99be f105 c83e
000000e0: 9b57 28be 2621 a2be 43cf 573e 81c9 4e3e
000000f0: ae9d 903d 83ed cc3d 0151 263f b788 f83d
00000100: c838 293e 03c7 3d3f f021 11be d939 273e
00000110: 1926 543f 6b3d 373e d89f d4bd 4cbd e23d
00000120: 4b7b 563e 36d3 94bf 79ac 18be 9c8e bdbd
00000130: b6d9 093e 6c75 053e 44a2 c73e 3bbb 66be
00000140: e141 99bc f2cf 133e b384 143f 2fd7 e33d
00000150: c369 a9bf fd62 f43e 7a22 b73d 6ca4 fcbc
00000160: bb92 12bd 3666 21bf d3f1 4a3e 299f a9bf
00000170: bf3c 1c3d 8047 ff3e 1ae1 91bd 4c63 d53d
00000180: 10ac 84bd 021d 26be 49bd 0bbe 6970 16be
00000190: 5e4d ff3d 551c 2ebe a405 46be 2d78 3dbe
000001a0: ae0a 1a3f b3b8 0c3f 5d36 413e b391 c1bc
000001b0: 953d 1ebe a465 dfbd 6ecf 2f3e 00a2 f3bd
000001c0: 2cac 79bd e046 b43f b6cf dd3d 5342 253e
000001d0: 6e9e 14bf 4b03 373e df37 37bd a620 f83d
000001e0: f538 58be 7481 08bd 749d 053e 7c52 a83f
000001f0: b76f 403d ce06 d6bd f798 4fbe 513b 503d
00000200: 24d3 013e 9e37 853f d0ec 4a3e 7a12 933f
00000210: 052d 61bd db5a 5bbd 3df2 07be 5fd0 033f
00000220: c449 30be b432 8b3d ffb1 2cbc 00cc a93d
00000230: d48f 41be f493 c0bd 04e5 3b3e f93b 0bbf
00000240: e334 70be 35ad 06be 63a9 2cbe 4f8f 313e
00000250: 1ba5 8cbd 123f 07be 4b42 1bbe 1cb1 7dbd
00000260: 460f 9fbd c397 773d 54fb 3ebe 24b9 bebd
00000270: bb8b a3bf 6f50 1dbe f711 a9bc b73e 5b3f
00000280: 93a5 3fbe 000f dc3d 79f4 7bbf e94a 383e
00000290: 2fe9 5d3d 4248 d43e 698d fb3c ddc6 8a3e
000002a0: 2e80 83bf 3631 f43d 9296 0a3e 90c9 2bbe
000002b0: c38e 2fbf ecb5 2d3e 7f97 273f 3b51 ebbc
000002c0: 9913 a13c a99b e7bc 1665 a83e 6c5e afbd
000002d0: fcec d33e 8633 253e bca0 82bf 2f3f a93f
000002e0: 8232 acbc 4a08 693e b6d8 1c3e be60 ea3b
000002f0: fcea cf3d c377 653e 59ea 5abf c78c 223e
00000300: fbd5 873d 3d4a 51bf 0cec 48be b8d4 3f3d
00000310: 6ed9 11bf bea6 b93d 24ee 38be 4636 843d
00000320: 0c80 923d b6f3 0040 6095 d8bd c014 2fbe
00000330: cba5 803e ff25 3dbf 6632 a03f 11e9 2ebe
00000340: 4226 c5bf 79a1 133e 5125 3dbf 5acf 16bf
00000350: 8295 9b3f 8e81 01bf 285b 393e 5999 edbc
00000360: a776 a4be 86ce 5cbf f7ba 5d3c 2aea 59be
00000370: 47e9 283d 9237 4abf 717d 2ebe a4e8 c33d
00000380: 3fc2 5e3f a136 20be de3b 06be 99a8 003f
00000390: d48f 023e 7edd 1bbe 57fd 42be a6e7 d4bd
000003a0: f784 d73e 9816 a7bf 50a0 c63d b096 75be
000003b0: c551 03bd 9eae 35be 91ea 333e 6433 5bbe
000003c0: e1bd 18be 0b95 87bf fa47 873d c8b0 ba3d
000003d0: 377a 01bf a98b 1a3e ec8e 11be 8b0d 3f3e
000003e0: 39a8 11bd 6552 91be cf6d 383e d08a 883d
000003f0: cac5 043e 1bbb 09be 064d f6bd 4b0d a33c

main.2.bias f4 [7]
0.1275802 0.0048970114 0.09931279 0.015358388 0.27436095 0.1721242 0.10287435
00000000: 62a4 023e 1c77 a03b 8164 cb3d c0a1 7b3c
00000010: 0a79 8c3e 5441 303e caaf d23d
