trained_models/generator_frozen_lake_suboptim.ckpt (torch, 11941 bytes, 4 tensors)

main.0.weight f4 [128, 12]
000000 ad 9a 1d be a9 c3 cd bd cc d9 25 be cd ff d1 bc
       -0.15391035 -0.10047085 -0.16196364 -0.02563467
000010 95 78 85 be 31 7f b7 3d fe 6d 38 be fb 69 bb be
       -0.2606856 0.08959807 -0.18010709 -0.36604294
000020 4c 4c 1f be 2f 55 dc 3a 6b 2e c0 bd de bf bb bd
       -0.15556449 0.0016810055 -0.093838535 -0.09167455
000030 67 82 97 3e a3 24 a8 3e 72 2c 5e 3e 06 9b 02 3e
       0.29591677 0.32840452 0.21696642 0.12754449
000040 73 2b 61 bb 2c ec dc 3e 90 7f 59 3e 34 6e ae bd
       -0.0034358173 0.43148935 0.21240067 -0.08517113
000050 e5 12 35 3e b7 2b 4f 3e d1 47 9c 3d 6d 60 19 be
       0.17682989 0.2023152 0.076308854 -0.1497819
000060 ab a3 9c bd 14 53 83 3d d2 29 70 3e ec 99 89 3e
       -0.07648405 0.0641233 0.23453453 0.26875246
000070 1d 5c aa 3e 0f a6 28 3e 6f 1d 96 bd 7c 84 68 3e
       0.33273402 0.16469596 -0.07329833 0.22706789
000080 5d 3d 13 bd 46 39 81 3e 81 e8 1f bc 9c ae 2d be
       -0.035947192 0.2523901 -0.009760023 -0.1696114
000090 05 62 97 be 0e c6 72 be 1f 50 f6 bd 9e 94 11 be
       -0.2956697 -0.23708364 -0.12027001 -0.14216849
0000a0 6c a8 85 3d 1e d4 8d bd 09 61 15 bd 5c 49 82 3e
       0.065262645 -0.06925224 -0.036469493 0.25446594
0000b0 f0 ea e7 3e 9d df 29 be 69 a7 11 be 91 ce 88 be
       0.4529643 -0.16589208 -0.14224018 -0.26720098
0000c0 44 41 96 be b0 07 a0 bd ce 75 69 3e da a9 5f be
       -0.2934667 -0.07813966 0.22798845 -0.21842137
0000d0 43 69 68 be ea 27 db bd 93 e0 e1 bc ae 0f 28 be
       -0.22696404 -0.107009724 -0.027572906 -0.16412231
0000e0 6d a6 6b be e5 82 4b be 43 d5 82 3e 1c b6 23 bd
       -0.23012705 -0.19874151 0.2555333 -0.039968595
0000f0 96 86 1e 3e 0d 30 85 3e 0e d3 b6 be 09 2e bf bc
       0.15481028 0.26013222 -0.35707897 -0.023337381
000100 33 56 4b bd cc 82 b1 be 6d 9f 3c be 06 0c fd 3e
       -0.049642753 -0.34670103 -0.18420191 0.49423236
000110 73 30 31 bf 0e 7c 2f bd b0 41 d1 be 60 52 4f 3e
       -0.6921455 -0.042842917 -0.40870428 0.20246267
000120 3b 15 33 3e 03 64 a7 3d 49 ae 26 3f fd 57 58 3d
       0.17488568 0.081733726 0.6510969 0.052818287
000130 a9 36 df 3d fd 70 de be 7b 6a 8e bd 80 5b de 3e
       0.108990975 -0.43445578 -0.06953903 0.43429184
000140 57 f2 85 be b3 16 5d 3e d8 a4 cc 3e 12 de 31 3e
       -0.26161453 0.2159069 0.39969516 0.1736987
000150 3c 89 2e be 55 34 fb bd 9f 4f 05 3f d5 c4 99 be
       -0.17044538 -0.12265841 0.5207462 -0.30032983
000160 19 df 15 3d 46 36 e5 3d ac 90 7a 3b 20 e6 64 3e
       0.036589716 0.111919925 0.0038233204 0.2235341
000170 8b 83 d4 bc 04 37 29 3f a1 5a 3e 3f 40 cf 0b bc
       -0.02594163 0.6609957 0.7435704 -0.008533299
000180 78 c7 4e be b5 25 8e 3d 25 6a b0 be 2b 30 af 3e
       -0.20193279 0.06940786 -0.34455982 0.34216437
000190 f2 56 fc 3d ed 06 bc be 05 62 05 3e 94 e7 df 3e
       0.12321271 -0.36724034 0.13025673 0.43731368
0001a0 74 fe 81 be 5c 91 8e bc b4 10 05 be 5c f4 7a 3e
       -0.25389445 -0.017403297 -0.12994653 0.24507278
0001b0 79 99 1b 3d 9b f9 97 be 0d 18 41 3d 03 c9 92 be
       0.03798816 -0.2968262 0.047142077 -0.28668985
0001c0 4f 96 4c be bc af 0a be 37 e4 89 be a9 69 31 be
       -0.19979213 -0.135436 -0.26931927 -0.17325462
0001d0 4b 8e 89 be 2d b1 54 be 85 8a 30 be 60 e9 38 bc
       -0.26866373 -0.20770712 -0.17240341 -0.01128611
0001e0 a3 57 56 bc e2 c7 d0 3c 5f 0a 3f be ce 7e 9e be
       -0.013082418 0.025485937 -0.186563 -0.3095612
0001f0 5d 38 fd 3d e4 a7 55 3e b6 05 e5 bc 06 c8 95 be
       0.12364266 0.20864826 -0.027956825 -0.29254168
000200 62 1d 2d 3f f7 a3 06 3e 59 c6 5b 3d 58 ea 1a be
       0.6762296 0.13148485 0.053655956 -0.15128458
000210 54 59 38 be 0e ae 37 be 32 a4 4a 3e f5 56 9b bd
       -0.18002826 -0.1793749 0.19789198 -0.07584945
000220 97 ee 8a 3e 47 41 4e 3e 8b 5d 3b 3e 4c ad be 3e
       0.27135155 0.20142089 0.18297403 0.3724159
000230 6d 88 4e 3e fe 39 05 3e d4 59 f1 3e a6 e0 84 3e
       0.2016923 0.13010404 0.47138846 0.25952643
000240 44 8a 0d 3f b9 fb 90 be bd 4b 85 be dd 7f 18 bd
       0.552891 -0.2831705 -0.26034346 -0.037231315
000250 8f 00 07 3e 52 42 35 3e 58 38 be 3d 83 38 0a 3e
       0.13183807 0.1770108 0.092880905 0.1349812
000260 6e ce 16 bf 11 c8 8d 3d 10 2a 00 3e b0 fb bb 3c
       -0.58908737 0.06922925 0.12516046 0.022947162
000270 e7 d1 56 be aa 6c 85 3d c6 4c a7 be dc 37 35 bd
       -0.20978509 0.06514867 -0.3267576 -0.044242725
000280 b5 2b 25 be 45 88 53 3e 79 9c e8 3e 58 e6 7a be
       -0.16129954 0.20657451 0.4543188 -0.24501932
000290 ea dd fd bd 5d 23 97 3e ca cd 0a be 34 dc 7d be
       -0.123958424 0.29519168 -0.13555065 -0.24791032
0002a0 c2 b5 a6 3d 17 09 b8 bd 4e 3a 1b be 3c bd 76 3e
       0.08140136 -0.08986109 -0.1515896 0.24095625
0002b0 ff e9 98 3e c4 28 6b 3e 65 80 8c 3d 3e 68 8b bd
       0.29866025 0.2296477 0.06860427 -0.06806992
0002c0 e6 ef c9 3d da 45 66 bd a7 07 12 3e c4 94 ed bd
       0.0986021 -0.05621896 0.14260732 -0.116006404
0002d0 eb 16 cb bd 3e 0d f7 3c 13 ad d5 3e 60 4a 0f be
       -0.09916481 0.030157682 0.41733608 -0.13993216
0002e0 01 1b 02 3d aa 93 a2 be 77 ab e7 3e 58 75 8e bf
       0.031764034 -0.31753284 0.45248005 -1.112956
0002f0 5b ea 08 3f a4 e8 a2 be 3a 2d 00 be b4 25 61 3e
       0.534826 -0.31818116 -0.12517253 0.21987039
000300 74 b6 99 3e ec 8a 2b bd 28 e6 f5 3e 9e 74 4f be
       0.30022013 -0.041880533 0.48027158 -0.2025933
000310 0f 9e 16 be ff c3 56 be 17 1b a9 3e ce b8 8f 3e
       -0.14708732 -0.20973204 0.3302848 0.28070682
000320 67 4c 10 be e6 05 98 be 61 94 12 3d c8 a9 03 be
       -0.14091645 -0.29692 0.035786036 -0.12857735
000330 8f 8c 00 3d 33 85 ad 3d 10 f6 41 3e 01 b1 87 3d
       0.031384047 0.08472671 0.18941522 0.06625558
000340 f4 6f aa 3e 0e 52 96 3d 0b 34 14 3e c6 09 2d 3e
       0.33288538 0.073398694 0.14472978 0.1689826
000350 83 de 00 3e 02 99 46 be d1 a9 7f 3e ca 9f 87 bd
       0.12584881 -0.19394305 0.24967124 -0.06622274
000360 1f 71 a1 be ce 28 6e be 93 0c c9 bd da ac 3c bc
       -0.31531617 -0.23257753 -0.098168515 -0.01151582
000370 24 05 6e bd 8d d4 9d bc a5 72 b9 3e 3a a0 f5 be
       -0.05811037 -0.019266391 0.3622028 -0.47973806
000380 02 27 e7 bd 1a 08 1f 3d 1d 6c 8c 3d fe 52 93 bd
       -0.11286737 0.038826086 0.068565585 -0.07193564
000390 57 fa 44 3e 4b 10 95 3e f0 e0 bf 3e ba fc 5c 3e
       0.19236122 0.29113993 0.374763 0.21580783
0003a0 d8 af c7 3d d7 b1 79 be 0d f8 7e be f0 7c 1c 3d
       0.097503364 -0.24384247 -0.24899311 0.038205087
0003b0 30 ce 9e 3c d2 6a 59 3d d3 da d9 3d 18 7b ba bd
       0.019385427 0.053080387 0.106374405 -0.091055095
0003c0 83 bc 14 3b fe ca ea 3d 35 f0 60 bf 12 f2 a9 be
       0.002269537 0.11464499 -0.87866527 -0.33192497
0003d0 a5 97 09 be 16 0c bd 3e a2 07 24 3e a0 00 c8 be
       -0.13436754 0.36923283 0.16018537 -0.39062977
0003e0 c6 6d 79 be ba 31 e8 be 05 c9 90 be 20 fb 76 bc
       -0.24358281 -0.45350438 -0.28278366 -0.015074521
0003f0 84 1b 4c 3e 93 eb 5f be 75 fe c5 be f2 50 a2 bd
       0.19932371 -0.21867208 -0.38670698 -0.07925595

main.0.bias f4 [128]
000000 2f bd 6c be 18 77 61 be 52 a3 6c be f8 05 3a be
       -0.23119043 -0.22018087 -0.23109177 -0.1816634
000010 c8 cb 5c bc 5e 6c 99 be be 62 18 bd 9e 28 7b 3e
       -0.01347632 -0.2996549 -0.037203543 0.24527213
000020 9a c8 b7 bc 63 06 cd bd 13 7e e5 3d b0 74 62 be
       -0.022434521 -0.10010984 0.112056874 -0.22114825
000030 4d eb 0c 3e 91 f1 17 be 6a cb 3c 3e 89 eb c9 bd
       0.13761635 -0.14838244 0.18436971 -0.09859378
000040 93 e9 ca bd 9d 5c 6d be 56 63 c7 bc a8 e5 79 3d
       -0.09907832 -0.2317986 -0.02433936 0.061010033
000050 be 7a 79 be 11 f5 92 bd 27 2a b8 bd 64 3b 30 be
       -0.24363229 -0.07175649 -0.08992415 -0.17210156
000060 2f dc 67 3d 7d e3 1f 3e 29 67 8a 3c fa 67 de bb
       0.056606468 0.15614124 0.016894894 -0.0067872973
000070 a4 1c 0c bc da b5 2d 3e 61 f8 6e 3e c6 b7 69 be
       -0.00855175 0.16963902 0.23336937 -0.2282401
000080 d0 55 aa be cf e7 67 3e 39 c3 12 3d 45 1a 0b 3e
       -0.33268595 0.22647022 0.03583071 0.1358424
000090 62 d6 53 3e 6a a4 85 3e 5e 81 18 3d 87 4a 49 3e
       0.2068725 0.26102 0.03723275 0.19657336
0000a0 aa e0 2a be 6d dc 12 bd a8 90 57 3e e4 0d d0 bd
       -0.16687265 -0.035854746 0.21051276 -0.101588994
0000b0 1e a9 5c 3d c2 32 bb 3d 6e 5f 9e bc d9 d7 ea bc
       0.05387222 0.09140541 -0.019332614 -0.028667377
0000c0 6b 87 90 bd 54 94 46 3e e5 60 9c 3e 11 54 e3 3d
       -0.07057079 0.1939252 0.30542675 0.11100019
0000d0 df 54 77 be c4 4f ab be 3e 39 1f 3d fa f9 68 3e
       -0.2415347 -0.33459294 0.03887295 0.22751608
0000e0 fe a8 9a 3d 1f a1 cd bd d1 e7 8e 3d 13 e0 92 3e
       0.07551764 -0.10040497 0.06977809 0.2868658
0000f0 1c ba 83 3d de 4a 83 3d a4 a5 f9 3d e5 2f f5 3d
       0.06431982 0.06410764 0.121897966 0.11972026
000100 be 1b 89 bd 95 08 0b 3e 84 fe c6 3c a0 ab 11 be
       -0.066947445 0.13577493 0.024291284 -0.14225626
000110 41 5f 8f be ac fa 80 be ea 8b 9e be e8 8a 1a 3d
       -0.2800236 -0.25191247 -0.3096612 0.037730128
000120 c8 a3 f3 3e 05 5a 26 3e c5 5c fd 3c a7 44 84 be
       0.47585893 0.16245277 0.030928025 -0.25833628
000130 f7 fc 2b 3e 98 48 42 3d 93 1e 83 3d 29 df 30 3e
       0.16795717 0.047432512 0.06402316 0.17272629
000140 f7 63 06 3e f1 19 93 bc fe 56 51 3e 64 3b 2a bd
       0.13124071 -0.017956706 0.20443341 -0.041560546
000150 4b f2 d3 3d 9a 2a 1f 3e fc 5d 65 be 5f f2 14 be
       0.10348948 0.15543595 -0.22399133 -0.14545582
000160 e1 b1 0c 3e f8 32 74 be ed 50 53 3e 59 ae 91 3e
       0.1373973 -0.23847568 0.2063634 0.2845333
000170 e9 7f 30 bd 75 b8 7f be 07 92 65 3d fa 7b 6e be
       -0.043090735 -0.24972709 0.056047466 -0.23289481
000180 a3 05 90 3e 40 07 b5 bd 1c 24 29 3e d1 53 16 3e
       0.281293 -0.088392735 0.16517681 0.14680411
000190 8d 8f da 3d b7 98 06 3e a8 c6 20 bd bc b9 ba 3d
       0.106719114 0.13144194 -0.039251953 0.09117457
0001a0 36 5d 73 be c8 5c 2c 3e 75 27 55 3d aa 8d f1 be
       -0.23766026 0.16832268 0.052039582 -0.47178394
0001b0 14 0d 50 bd 42 84 45 be bf 0e 19 be 4b 83 0c 3e
       -0.050793722 -0.19288734 -0.14947031 0.1372196
0001c0 21 5f ac be 7f 15 9e 3d 2a 27 b4 bd aa b6 96 3a
       -0.33666328 0.07718944 -0.087965325 0.001149853
0001d0 b8 21 06 3e 9f 6e cf bd 5f 23 91 3e a5 2c f0 3e
       0.130988 -0.10128521 0.28347299 0.4690906
0001e0 1d 3e 7b be 23 48 09 3d 58 db 12 be 81 75 74 3a
       -0.24535413 0.03351606 -0.14341486 0.0009325371
0001f0 5e 9c 02 3e 90 cc 3e bd 97 8e 3d 3d 5a 1c b1 3d
       0.12754962 -0.046581805 0.046278562 0.08647986

main.2.weight f4 [7, 128]
000000 a2 d4 14 be 7d 3e 38 3d 0e 84 f3 3d 23 69 1e be
       -0.14534238 0.04498147 0.11890422 -0.15469794
000010 f6 cb 1a be 01 a2 05 3e bd 4d 28 3f a0 bf aa be
       -0.15116867 0.13050081 0.6574362 -0.33349323
000020 77 7c 84 3f ee 28 d2 bd 46 fa 53 3d e3 49 46 3d
       1.0350484 -0.10261713 0.05175235 0.048410308
000030 6a 72 99 3d a8 a4 9f 3f fc 3e cc 3d 2f 31 a7 3e
       0.07492526 1.2472124 0.09972951 0.32654712
000040 c0 96 20 3f ab 20 08 3d ff 35 34 3c e9 91 ea bd
       0.62730026 0.03323428 0.010999202 -0.114536114
000050 25 ab 17 bf 14 7c 94 3d 6f e9 11 3f ba ba cc bd
       -0.5924552 0.072502285 0.56996816 -0.09996553
000060 1b 78 5f be b4 24 16 be 90 a7 30 be 68 af 39 bf
       -0.2182316 -0.14662439 -0.1725142 -0.72533274
000070 d6 40 ef 3d e0 66 61 bc 8c 98 ed 3f a4 70 30 be
       0.11682288 -0.0137574375 1.8562179 -0.17230469
000080 97 cc 08 bd 9c 7d db 3d 64 60 ee bd 48 ff 04 3e
       -0.033398237 0.107173175 -0.11639479 0.12988007
000090 1e e9 01 3e c1 6e 63 be 42 5d 17 3e 5c 93 8b bf
       0.12686583 -0.22210218 0.14781669 -1.0904346
0000a0 ec f9 2b 3f c8 22 36 be 54 45 aa 3e e5 30 e6 3f
       0.67178226 -0.17786705 0.33256018 1.7983671
0000b0 d8 99 93 bd c2 e6 07 3e fa 56 0c bf 8d 64 95 3d
       -0.07207078 0.13271621 -0.54820216 0.07294569
0000c0 41 48 25 3f 91 9b 60 3d f2 ad 6a 3d c1 c6 5c be
       0.64563376 0.05483586 0.057294793 -0.21560194
0000d0 70 39 eb bc f1 e5 81 be ce 5f 8f 3e dc 41 ad bd
       -0.028713912 -0.25370744 0.2800278 -0.08459827
0000e0 c4 98 36 be 51 7b 55 3d 0c 39 9f 3d a2 27 2b 3e
       -0.17831713 0.052119557 0.07774553 0.16714337
0000f0 d2 d4 fe 3e 50 5e 04 3e 0b 79 af 3c f9 bd 2a 3d
       0.49771744 0.12926602 0.021420022 0.04168508
000100 f0 94 20 be 0a 2a d0 3c b8 4c 14 3e 89 1c 47 bf
       -0.15681815 0.02541067 0.14482391 -0.77777916
000110 f7 be 4f 3d 26 ff c2 3e 85 3b 01 3e 3a 3a a7 3e
       0.050719228 0.38085288 0.12620361 0.3266161
000120 3d a1 f7 3d 01 66 0e be be 67 4b 3e a5 76 44 bd
       0.12091301 -0.13906099 0.19863793 -0.04796471
000130 2f bc a7 bf c4 d6 86 3d f7 d9 d1 bd 2e 89 1f 3e
       -1.3104304 0.06583932 -0.102466516 0.15579674
000140 37 63 2f 3d 61 03 03 be 80 aa a0 3d 4b 52 5e 3d
       0.042819228 -0.12794258 0.0784502 0.0542777
000150 24 91 9a 3d e7 32 17 bd a9 74 5c be 1b 7f 60 bf
       0.075472146 -0.03691378 -0.21528877 -0.8769395
000160 db c3 d3 be 2b 51 8b be 41 89 ea bd ee a8 b5 3d
       -0.41360363 -0.27210364 -0.1145196 0.088701114
000170 a1 bb 44 be a4 ba 4a be 3c 86 50 be de ed fe 3d
       -0.192122 -0.1979776 -0.20363706 0.12447713
000180 a6 6e 89 3f 86 43 11 3e 20 b6 39 be 68 70 4e be
       1.0736892 0.14185914 -0.18135881 -0.20160067
000190 bd 17 ed bd 8a 2d 50 be 55 5b 17 be 4a ba c7 3d
       -0.11576793 -0.20329872 -0.14780934 0.09752329
0001a0 c6 fb fd bd 81 32 39 be 48 7e 59 3d 4c fc 55 bf
       -0.124015376 -0.18085672 0.053098947 -0.835881
0001b0 b6 6b 15 be 75 d0 80 3f 25 42 41 bf 35 d2 0a be
       -0.1459187 1.0063616 -0.75491554 -0.1355675
0001c0 df 23 74 bd b6 ca bc 3f 38 86 24 be 0a f7 e9 3d
       -0.05960452 1.4749362 -0.16066825 0.11424072
0001d0 d2 d4 32 3e b2 fe 22 bc dc a1 fd be cd 86 85 bd
       0.17463997 -0.009948419 -0.4953755 -0.06519852
0001e0 ca ca 93 bd 67 ae 04 3e d9 fe 2b 3e 7f 54 40 be
       -0.07216413 0.12957154 0.16796435 -0.18782233
0001f0 f0 fc ab bd e0 d5 da bd e5 49 d7 3c c9 f9 c4 3d
       -0.083978534 -0.10685325 0.026280353 0.09617955
000200 57 e9 27 be 0f d7 9f 3d 51 c8 f2 3d d0 15 6d be
       -0.16397606 0.07804691 0.118546136 -0.23152852
000210 1f 18 46 be d7 8e 04 bf a2 ce ee be ba 36 a1 3f
       -0.19345139 -0.51780456 -0.46642023 1.2594826
000220 78 b6 4a bf 4b c6 83 bd 14 d1 64 3d f8 d5 10 3e
       -0.79184675 -0.06434306 0.055863455 0.14144123
000230 85 d8 36 3e 28 06 1a 3e 9a a5 6a 3d a8 9a a3 3f
       0.17856033 0.15041411 0.057286836 1.2781572
000240 2e 96 b0 3f 79 cb ac 3d 63 ad 8d be db 24 8a 3e
       1.3795831 0.08437247 -0.27671346 0.26981243
000250 14 d2 29 3f ef a8 84 be ab f4 ea 3e 6b 12 3e be
       0.6633618 -0.25910136 0.45889792 -0.18561713
000260 d5 16 fe bd af 9b 7d bd f3 c3 1f be 81 e0 6d bf
       -0.124066986 -0.06191605 -0.15602092 -0.9292069
000270 87 95 e4 3d 59 21 cf bd cc 9c f2 3e eb 3d 19 be
       0.111613326 -0.101137824 0.47385252 -0.14965026
000280 41 35 ee 3e 91 59 46 3e e3 58 1c be eb 7a 84 3d
       0.46525005 0.19370104 -0.15268283 0.06468757
000290 6e 49 62 3e 8f 18 7b bc a9 d8 16 3e 1a f6 66 bf
       0.22098324 -0.015325679 0.14731087 -0.9021927
0002a0 a6 62 1b c0 46 24 06 bd ce b0 e4 3d ee 63 6b bf
       -2.427896 -0.032749437 0.11166535 -0.91949356
0002b0 ba 14 55 bd 3b fe 64 3e 99 4b 36 bf be cb 14 3e
       -0.05202172 0.22362606 -0.712091 0.14530846
0002c0 a2 77 d2 3f 51 c9 ad 3d b3 90 1a 3e 1f 45 65 be
       1.6442759 0.08485664 0.15094261 -0.22389649
0002d0 af e6 ba bd ca ea 13 3e a5 64 b8 3f a9 2f 12 be
       -0.09126031 0.14445034 1.4405714 -0.14275993
0002e0 33 d8 30 be c4 18 e4 bf 21 23 93 3d a6 f5 05 3d
       -0.17269973 -1.7820058 0.07184435 0.03270497
0002f0 f4 c7 3e bf 07 26 88 be 93 ec eb 3d d9 1e 54 3e
       -0.74523854 -0.26591513 0.11519732 0.20714892
000300 b3 c0 cc bd 7a cc 24 be 7f 20 bb 3d 2f 2f 88 bf
       -0.09997692 -0.16093627 0.091370575 -1.0639399
000310 f5 b4 8f 3d fe fa 35 3e c1 e6 3d be c6 b8 3c be
       0.07016937 0.17771527 -0.18545057 -0.1842986
000320 7c b4 5a bf 19 20 84 be 76 b4 97 3d 07 0b 02 be
       -0.8543165 -0.2580574 0.07407467 -0.12699519
000330 39 65 77 3f c0 cb 9e 3d 57 3b e3 bd 57 a0 f0 3d
       0.9663883 0.07753706 -0.110953026 0.117493324
000340 19 51 b4 3d e1 52 cf bd f3 23 c1 3e 6d 2d 35 3e
       0.08804531 -0.1012323 0.3772274 0.1769311
000350 bd fd 2c 3e c7 1f 4e be e1 cf 82 3d b7 e5 0e 3f
       0.16893668 -0.2012931 0.06387306 0.5581927
000360 3b a9 56 3f aa e2 94 3f 20 d7 b4 bd b3 94 0c 3e
       0.83851975 1.1631672 -0.08830094 0.13728599
000370 5f 8b d7 bd a5 5c a0 3f 55 54 16 be bf 8c b1 be
       -0.1052463 1.2528273 -0.14680608 -0.34677693
000380 26 62 df be 84 58 52 3d bf 1e 32 be 4e 09 c2 bc
       -0.4362957 0.051353946 -0.17394541 -0.023686077
000390 cb 39 19 be 75 85 87 bd b7 d5 fb bd d1 18 55 3e
       -0.14963453 -0.06617252 -0.12296622 0.20810248
0003a0 fe 80 47 bd 3f 92 55 be c3 1f 37 3e 8c ea e3 3e
       -0.048707 -0.2085657 0.1788321 0.44514883
0003b0 f1 83 37 be fa 64 20 be 9d ef d4 3e 1e 2a 3b be
       -0.17921425 -0.1566352 0.4158906 -0.18277785
0003c0 e8 ce 36 bd 52 6d 3d bf 80 eb 91 bc a6 e7 15 3d
       -0.044630915 -0.73994935 -0.01781249 0.03659787
0003d0 59 23 19 3e 9a c0 95 3d 74 3f 38 bf 39 ea 2b 3e
       0.1495489 0.073121265 -0.7197182 0.16788568
0003e0 3d 16 cc bd 43 4e 51 bf 64 88 ce 3d 66 ff 07 be
       -0.09965179 -0.8176004 0.10084608 -0.1328102
0003f0 d1 37 07 be 92 a7 43 be 6a 17 87 3e 6c 4f e7 3d
       -0.13204886 -0.19106892 0.2638505 0.112944454

main.2.bias f4 [7]
000000 13 46 a6 3c b0 9a 08 3e 33 03 03 bd 53 8a f5 3d
       0.020297086 0.13340259 -0.031985473 0.11989274
000010 62 fb a9 3e f2 1c 21 3e 2e ec df 3d
       0.33199602 0.15733698 0.109337196
