trained_models/generator_farm0_optim.ckpt (torch, 30373 bytes, 4 tensors)

main.0.weight f4 [256, 15]
00000000: d12c 40bd 21fc 323e 8c57 c43b ac7a 903e
00000010: 2e2c b93d 6fd0 15be 99cb bd3e 6129 dbbd
00000020: 96bf b5bd 7056 efbe 3dc0 d4bd 8bf9 8b3d
00000030: 62a6 733d 6808 afbe 90b0 4f3f cc8a 4d3d
00000040: 9375 1fbe 1282 0f3d cc62 4dbd 9c87 f53b
00000050: 0d83 11bd 4a24 ca3c fc57 1a3e cdfa 463e
00000060: f56d 8fbe ab6c a1be 53c5 b4bd 0351 ab3d
00000070: 2529 1f3e 918f 8abe e33d 9e3c e806 063d
00000080: 9022 493d c9fd 1c3d 13d9 4bbe 9037 c33e
00000090: 5b5e 30be 14c5 4cbd 06eb 2b3e 79d9 a9be
000000a0: 9c24 023e 2e6d 4b3e bcc7 ac3e 999e e4bd
000000b0: 94ed b3be c267 80be a76b 093e 69eb 573d
000000c0: 0fe5 f93b 0848 08be b2ee 1cbe ec32 23be
000000d0: 1d8d 35bd f715 f23c 0197 15bd 9001 29be
000000e0: 566d 5e3d 3458 8fbd ff84 69be f98f 82be
000000f0: cf51 0f3e 5bb8 253e 7f14 90bc 78a6 a23b
00000100: 8462 ab3d b1ed b33d 22c4 21be ebcd b73c
00000110: 9a09 2e3e f0be 733e 94a5 103e 74c3 bcbd
00000120: 1594 95bd 2a91 52be 316f 59bd d01f 38be
00000130: 0c6f 10bd 86da f13c b414 643e c5f4 55be
00000140: d2bd 50bd a26f 173e b3dc 923c ccac 5fbe
00000150: d888 8fbe d425 0dbe 0e43 08be 1110 1a3c
00000160: 8a0e 223e a83b c83d 700e 34be 2759 023e
00000170: 5cfa 58be 4d7c 25be 8c20 ad3d c940 713e
00000180: 786e 9b3b 298e 57bd 117d 353e 358f 3fbd
00000190: 5325 2f3d db12 19be fcdc 0cbe 1706 613e
000001a0: dc89 8a3d 3f46 593e 2089 673e f4a0 8e3e
000001b0: 45db c33d d8be 2e3e a5d1 793d c8da f83d
000001c0: 1551 1fbe 699b 413e 9913 da3d 1d1b bc3d
000001d0: 12e0 0ebe 563e 76bd 96f5 233e 550a bebd
000001e0: 384f 5fbd 98ed 3dbe 828f 103e 561d 5dbe
000001f0: f95c 3a3e 1219 ba3c b2be 633e 2cf3 08bf
00000200: 5b54 3ebf c650 313e 7c8e d8be 41fb 9f3e
00000210: 0933 cfbd 39ab e93c 40a0 bebe a0b5 9dbe
00000220: a749 da3d fcb0 5c3d fa59 1b3b 8c00 c33d
00000230: 4129 2dbe e4ce 643e cff5 95be 4b3d 79be
00000240: 20f0 fa3b 86c3 133d c27e 34be 7aa0 a8bd
00000250: 0fda 003e 0e15 81be 1a81 d2bd 5f3f ef3d
00000260: fa48 7b3d 8cbc 17bd 3619 413e 921c f13e
00000270: 4af5 f83e b6d7 5dbc 0e92 b7bd 71a0 523d
00000280: 4c56 283f 0e60 54be b423 38bf 8e4b 123f
00000290: 7257 f8be 5f91 7bbe 9b47 46be c500 ba3d
000002a0: ae6e b93d 6dd6 01be 2f95 443e fe0b 02bd
000002b0: cc6d 3f3d 3bd5 f9bd a469 3abe af5a 3f3e
000002c0: d3bf 4ebe 9d48 81be 599a 40be a6f5 473e
000002d0: 0054 db3d 6af9 633e 6471 d6bd e5ee 033d
000002e0: 86e5 0ebe 76a2 83be e2c8 483e 00dc 41be
000002f0: 6d04 8d3e e839 3f3e ce88 d83d 3c8f 56be
00000300: 9c30 aa3b 2702 5dbe 9251 8b3e bc23 d7b7
00000310: 3182 8e3c 0aa9 57be e955 a5bd 42fa f0bd
00000320: b952 08be b141 e3bd 8c64 02bf 7457 babe
00000330: 69dc dd3d 078b 02bf 6bb0 36bf b570 b5be
00000340: fc23 d53e 5175 c6be c882 5ebd b437 5dbe
00000350: 1dbe 713d c585 e63c c742 16be e82e 01bd
00000360: d7a2 9bbe 5893 8cbe e443 4fbe cd1f 74bd
00000370: b877 af3d b299 90be 8ce6 a53c 4d2f 3f3d
00000380: 9bfc 45be 4a3a 77be 88e9 05be 0143 8b3d
00000390: f06c 53be 9c49 38be bb7e 293e 6cf1 0dbd
000003a0: c882 3b3e 13dd 30bd 444c 2abe edce 25be
000003b0: 1809 81be 2c05 6cbe 19de 5cbe 0675 3abe
000003c0: 3464 833e ff4e d7bd 229f afbd 71c2 ca3d
000003d0: caa1 a0bd c0b4 62be cca4 953d 841e 2bbd
000003e0: 2b33 8b3c e024 003e 56b3 54bc 94d1 43be
000003f0: 99c2 6f3e d2b7 99bd 8760 13be cb71 33bd
-0.04691774 0.17478992 0.0059918817 0.2821859 0.0904163 -0.14630292 0.37069395 -0.10701252
-0.08874433 -0.46745634 -0.10388229 0.06834706 0.059484847 -0.341861 0.8112879 0.050181195
-0.15572195 0.035036154 -0.05014305 0.0074929725 -0.03552537 0.024675507 0.15072626 0.1943161
-0.28013578 -0.3152822 -0.08826699 0.08365061 0.15543039 -0.27062657 0.01931662 0.03272143
0.049105227 0.038327966 -0.19907026 0.38128328 -0.17223494 -0.049992636 0.16788873 -0.3317373
0.12709278 0.19865867 0.33746135 -0.111630626 -0.35142195 -0.2507916 0.13419972 0.05271474
0.007626183 -0.13308728 -0.1532543 -0.15937394 -0.04432403 0.02955149 -0.03652096 -0.16504502
0.05430349 -0.06999245 -0.2280464 -0.25500467 0.13996051 0.16183607 -0.017587898 0.0049636923
0.083684 0.087855704 -0.15797475 0.022437057 0.1699585 0.23803306 0.14125663 -0.09216967
-0.07303635 -0.20563188 -0.053084556 -0.17980886 -0.035262153 0.029523145 0.22273523 -0.20894153
-0.050962277 0.14788678 0.017927503 -0.2184326 -0.2803409 -0.13783962 -0.1330683 0.009403245
0.15825859 0.097770035 -0.17583632 0.12729321 -0.21189255 -0.16160698 0.084534734 0.2355987
0.0047433935 -0.05262581 0.1772349 -0.046767432 0.042760205 -0.14948599 -0.13756174 0.2197498
0.06764576 0.21218203 0.22610903 0.27857172 0.09563307 0.17064989 0.06099095 0.12151104
-0.15558274 0.1890694 0.10648269 0.09184859 -0.13952664 -0.060118042 0.16011652 -0.092793144
-0.05451891 -0.18547666 0.14117244 -0.21593222 0.18199529 0.022717033 0.22240713 -0.5349605
-0.74347466 0.17315969 -0.42296207 0.3124638 -0.10117156 0.028524028 -0.37231636 -0.3080263
0.10658579 0.053879723 0.0023704753 0.09521589 -0.16910268 0.22344548 -0.292891 -0.24339788
0.0076580197 0.036075138 -0.1762648 -0.082337335 0.12583183 -0.25211376 -0.102785304 0.11682009
0.061348893 -0.037045047 0.18857273 0.4709211 0.4862464 -0.013540199 -0.089634046 0.05142254
0.6575668 -0.20739767 -0.7192948 0.5714654 -0.48504215 -0.24567173 -0.19363253 0.09082178
0.090543136 -0.12679453 0.19197534 -0.031749718 0.04673557 -0.121988736 -0.18204361 0.18686937
-0.20190363 -0.25250712 -0.18808879 0.19527301 0.10709381 0.22263113 -0.10470846 0.03221025
-0.13954744 -0.25709885 0.1960788 -0.1893158 0.2754244 0.18674433 0.105729684 -0.20953077
0.005193783 -0.21582852 0.2721067 -2.5646637e-05 0.017396064 -0.21060577 -0.08073027 -0.11766483
-0.13312806 -0.11096514 -0.5093467 -0.36394846 0.108330555 -0.5099339 -0.7136294 -0.3543755
0.41629016 -0.3876138 -0.05432394 -0.2160328 0.059019197 0.028139958 -0.14673911 -0.031538874
-0.30397674 -0.27456164 -0.20240742 -0.05960064 0.085677564 -0.2824226 0.020251535 0.04667597
-0.19334643 -0.2414333 -0.13077366 0.06799889 -0.20647025 -0.1799683 0.1655225 -0.034654066
0.18311608 -0.043179583 -0.16630656 -0.16192217 -0.2520225 -0.23048848 -0.21569099 -0.18208703
0.25662386 -0.10513114 -0.08575274 0.09900368 -0.07843359 -0.22139263 0.07306823 -0.04177715
0.016992172 0.12514067 -0.01298221 -0.19122916 0.23414077 -0.07505764 -0.14392291 -0.043809693

main.0.bias f4 [256]
00000000: 3642 513e 3ab2 85be d020 423e 68fe b3bc
00000010: c2f7 2b3d 549c 60bd 4379 03be c23e 4e3c
00000020: 1952 d03d 5377 71bd b000 973e cd97 4c3e
00000030: 833b c13d 8d96 f6bd b011 73be 9872 65bd
00000040: 4a94 bebd 2bf5 f3bc d87a d43d 002e 50bd
00000050: ba0d 8bbe fa1c 3f3e 8b99 a53c c08c 5c3e
00000060: 4951 633e 4bb9 d9bd c651 5bbd 6e08 93be
00000070: a403 57be 3caa 753d 37d3 d23d 0dd1 eabd
00000080: 0e22 6e3c fe76 9f3c 840b 7e3e 395a 823e
00000090: 5abb ed3d bd03 293e 3204 2fbd b3bf 713e
000000a0: 7104 113e aa8c d33e 26e0 20be 88a2 ab39
000000b0: 81db c03c c6c3 b03d 36e6 99bd 533f d83d
000000c0: 4ea8 f6bd 4c81 123a cc0b f23d a1b1 f53d
000000d0: 080a 383e d30c 4abe cb01 4fbe 42b8 39be
000000e0: 9ad2 5bbe 748e 223e 01da 68be 9372 2e3e
000000f0: cc42 2ebe b9e0 7bbe 7407 b63d 60c1 0dbd
00000100: 3e72 1abe d2c9 593e ca3a 623e 5e8e 1e3e
00000110: 18c2 8e3e cac2 9dbc bdf7 cc3d 6778 193e
00000120: a777 56be 413b 823e 8c75 0fbf f417 933d
00000130: d724 87be b0c7 09be 6bd1 f5bd 7098 053e
00000140: 87d1 03be 9a09 dcbd d0e0 433e 8e61 5fbe
00000150: 5db5 2abe f80f a83a b427 42be b19f 9c3e
00000160: d0e5 343e 5060 b23c 5efc 123e df1e 7e3e
00000170: 0748 8f3e 5936 7f3e ed8b 23be db5a 96bc
00000180: e415 42be b0fe b13e 7be5 003e 1009 1cbe
00000190: daf4 3cbe 1503 f73d 938c 093d 541c 2ebe
000001a0: 1b4b 403d 979c 573d 4e5f 1bbd 6376 fd3c
000001b0: da18 773e 43e9 8c3d 840b 103e b4da 6abd
000001c0: d4df 503e 7f47 3f3d 3078 433e dd9b d13d
000001d0: fee8 07be a341 40be 4391 8b3e 17b7 203e
000001e0: 17ac dabd fbdd 293e e451 14be d1e7 85be
000001f0: e81c 60bd 7f65 67be c3e8 843e 0478 333e
00000200: 7a98 28be ec02 ebbd df5a 083e 0a50 5b3e
00000210: f602 493e 52da 343e 16a1 973d 112f 16be
00000220: 8d89 9fbe f195 d93b 21b7 0cbe 2fee 6d3e
00000230: 23df 0bbd 2a95 cfbd 44b1 9f3c 7f59 9b3d
00000240: ac61 63be 69ad 6d3e cb43 dfbe 8bf4 9dbc
00000250: 5d58 013e 5e8a 22be 78fd 9c3d 8446 19be
00000260: e118 ce3d 37f7 48be 6179 93be 63f1 86be
00000270: e67b eabc fa55 3bbe 2651 643e 3402 46be
00000280: bb76 63be b240 de3d cf25 ad3c 32ac f03c
00000290: 7458 11bb 810f 89bd 8dcd c63d 2672 18bc
000002a0: ff2f dfbd e072 36be 5b9d a63a 2e2c 5c3e
000002b0: 8fb4 863e 9860 9ebd fd20 263e cde2 96be
000002c0: 19b1 773e cb2b 82be 9297 573e 203a 44bd
000002d0: 8e4d 75bd 3938 35be 2b66 b5bc 2ea5 0a3e
000002e0: 5beb 833d 3d67 22be a98c a83d f8e9 b43c
000002f0: f641 5ebd c793 8d3e 97f2 cebd eb34 0ebe
00000300: 1c94 beba efa3 9ebc f905 e83c 3c78 71bd
00000310: 174a 69be ef8e 4d3e 7ee6 b8bd 580f 303e
00000320: 1b05 51be feb1 a03e 7148 f3bd 4be2 fe3d
00000330: de74 ef3b fab5 e1bc 2967 d9bd 28e7 33bd
00000340: fc02 4c3d a001 dfbd 2fff 413e 6b78 d03e
00000350: 8c8d 79bd 6426 b8bd 5e5d c8be 73c1 663e
00000360: 3690 5dbe 865f 28be a804 c4ba 6267 e3bd
00000370: 3a89 1fbd aa26 773d b53c bdbd 5eba 89be
00000380: 250c 29be 8415 58bd dd3d cd3a cb01 373d
00000390: 886c a9bc 1230 fdbd a3de 7dbe c5b5 5abd
000003a0: 652c 3e3b 3664 1f3d d35a 083e b650 0f3e
000003b0: 4937 e7bd a6c2 393e 899b 42be 5dcb 6abe
000003c0: 2a79 5d3e 367e 4dbe e943 30b8 2bae 2ebd
000003d0: 59c7 4b3e a15c 9c3d 49e8 3ebe f696 093d
000003e0: 6e04 5fbe 2129 553e 1e6e 2abe fd87 303c
000003f0: e585 433c 3ca8 1b3e de7e e3bd 4101 d93c
0.20435414 -0.2611254 0.1895783 -0.021971896 0.041984327 -0.054836586 -0.12839226 0.012588205
0.10171909 -0.058951687 0.29492712 0.19979782 0.09435179 -0.12040434 -0.23737216 -0.05601749
-0.09305628 -0.029779991 0.10374993 -0.05082512 -0.2715891 0.18663397 0.020214817 0.21538067
0.22198977 -0.10631045 -0.053544782 -0.2871737 -0.20997483 0.0599768 0.10294192 -0.114656545
0.014534486 0.01946592 0.2480908 0.2545946 0.11608 0.16505332 -0.04272861 0.23608284
0.1416185 0.41318256 -0.15710506 0.00032736757 0.023542168 0.08631091 -0.075146124 0.10558953
-0.1204382 0.0005588725 0.11818656 0.11996771 0.17972577 -0.19731455 -0.20215528 -0.18136695
-0.21467057 0.15874654 -0.22739412 0.17035894 -0.17017668 -0.24597444 0.0888814 -0.034608245
-0.15082642 0.21268395 0.22092739 0.15483996 0.27882457 -0.019257922 0.1000819 0.14987336
-0.20944081 0.25435832 -0.5603874 0.07182303 -0.26395294 -0.13455081 -0.12002834 0.13046432
-0.12872897 -0.10744019 0.19128728 -0.21814558 -0.16670747 0.0012822142 -0.18960458 0.30590585
0.17665792 0.021774441 0.14354083 0.24816464 0.2798464 0.24923076 -0.15971346 -0.01835387
-0.18953663 0.34764624 0.1258754 -0.15237832 -0.18452778 0.12061135 0.033581328 -0.17002994
0.046946626 0.05263957 -0.037932687 0.03094024 0.24130574 0.06880429 0.14066893 -0.057337478
0.20397884 0.046699043 0.19088817 0.10234807 -0.13272473 -0.18775038 0.27259263 0.15694843
-0.10677355 0.16588585 -0.14484364 -0.26153424 -0.054715067 -0.22597311 0.25958833 0.17526251
-0.16464415 -0.11475167 0.13315915 0.21417251 0.19630036 0.17661408 0.074037716 -0.14666392
-0.3115963 0.006640189 -0.13741733 0.23235391 -0.034148347 -0.10135873 0.019493707 0.075854294
-0.22205228 0.23210682 -0.4360641 -0.019281646 0.12631364 -0.15873095 0.07665533 -0.14968306
0.10063339 -0.19625555 -0.28803542 -0.26356038 -0.028623533 -0.18294516 0.2229658 -0.19336778
-0.22213261 0.108521834 0.021136193 0.029378984 -0.0022177966 -0.0669241 0.097071745 -0.009304559
-0.108978264 -0.17817259 0.001271169 0.21501228 0.2630963 -0.077332675 0.16223522 -0.2946991
0.24188651 -0.25424036 0.21053913 -0.047906995 -0.059888415 -0.17697228 -0.022143444 0.13539574
0.06441375 -0.15859695 0.08229954 0.022084221 -0.054262124 0.27651808 -0.10104864 -0.13887374
-0.001453999 -0.019365279 0.02832316 -0.058952555 -0.2278217 0.20074056 -0.09028338 0.17193353
-0.20412104 0.31385797 -0.118790515 0.12445506 0.007307633 -0.027552593 -0.10615379 -0.04392162
0.049807534 -0.10888982 0.18945001 0.40716872 -0.060926005 -0.089916974 -0.39133734 0.22534733
-0.21637043 -0.1644269 -0.0014955001 -0.11103703 -0.03894923 0.060339607 -0.092400946 -0.269
-0.16508539 -0.052754894 0.0015658695 0.044679444 -0.020681635 -0.12362684 -0.2479196 -0.053396005
0.002901816 0.038913928 0.13315897 0.13995633 -0.11289842 0.18140659 -0.19004644 -0.2292914
0.21628252 -0.20067677 -4.2024916e-05 -0.04264657 0.19900264 0.07634855 -0.18643297 0.033591233
-0.21779034 0.2081647 -0.16643569 0.01077461 0.011933778 0.15200895 -0.11108182 0.026489856

main.2.weight f4 [12, 256]
00000000: 2c4d 03bf edf5 14bf 7bcb 0ebf 411e 32bf
00000010: 598f 1c3f 9d83 2cbf d104 2dbf 1b35 253f
00000020: 41b3 e7be 31bb 31bf 7f86 263f edba 1bbf
00000030: 734f 2f3f aca3 9abf f718 28bf 1990 23bf
00000040: 6dae 283f 8953 f9be 19bd 313f 1b54 213f
00000050: 4fd3 17bf a0e3 efbe 27f7 183f b5a5 283f
00000060: bd3d 2a3f 8750 1c3f a1a6 2cbf eb74 3e3d
00000070: dbe4 46bf 9de9 25bf ffeb 303f 39e7 30bf
00000080: 7fcd aabe 9552 2ebf 8742 263f 79ae 2e3f
00000090: c94b 66bf 5b05 13bf 3dcf 273f 2e1a 983e
000000a0: 67a5 2cbf 438c 833f 5b72 153f d726 26bf
000000b0: 85c4 c73e cbe4 09bf f700 143f 5711 26bf
000000c0: 7f7f 30bf 85a5 31bf 5f08 1cbf 8f68 2f3f
000000d0: ddd6 18bf 1b27 25bf a53a 2dbf f5e1 293f
000000e0: a53a 223f ada2 1c3f bb51 293f b52f 2a3f
000000f0: c37f 163f 978e 2b3f 357d 403d 91a9 313f
00000100: ab2d 1e3f bd97 2cbf 9bc0 1e3f cd11 2fbf
00000110: 0df8 273f a76e 15bf 79b7 563e 558e 223f
00000120: 29bc 283f a9fe 15bf bb4c 623e e3f9 2cbf
00000130: ad7f 223f 345c 043f 6f11 1cbf df59 1abf
00000140: 13f1 2bbf 01e2 2fbf 936b 27bf bfa1 de3e
00000150: 739b b9be d3e4 2b3f 6d38 243f 35df 273f
00000160: 8fa7 1dbf 4ddc dcbe 5e45 edbc 0793 2dbf
00000170: 8f02 2abf c707 1fbf cf4e 2b3f d750 21bf
00000180: ff5b 133f 7734 233e 6a43 153f 3b78 1b3f
00000190: 0fe9 1cbf e5e4 063e 1530 8c3d 4d38 1dbf
000001a0: f33f 303f a962 15bf ddf4 00bf af74 253f
000001b0: ffe5 0ebf 82c2 303f ab3f 28bf 41da 21bf
000001c0: 109d 1bbf b015 ed3d d554 31bf 25f8 123f
000001d0: 3806 29bf 6298 313f ceef e03e 574f 393f
000001e0: bf14 213f c3e8 1abf 45e3 29bf 7012 833d
000001f0: f36f 26bf a7a6 82bf 2c5d 253f 18f2 313f
00000200: 3f28 32bf dd1f 2c3f fbac 1e3f 47a0 243f
00000210: 2926 19bf 4fe1 29bf dfd2 ad3e 05d5 2abf
00000220: 66dd 8a3f 0f5c 2a3f 7f20 24bf 2971 293f
00000230: 51f4 f6be 713a 13bf 7dce 27bf 2f64 2ebf
00000240: 1fe9 273f 9769 22bf 077a a73e 7c22 13bf
00000250: 491f 343f 77fa 5cbf 59ab 193f bd75 1c3f
00000260: b4c8 883f dd08 2cbf 4e25 1e3f dc59 aa3e
00000270: 4d62 253f ed34 d93e 0a8b 39bf 1391 1fbf
00000280: 078f 1cbf 6df5 163f b169 c0bd 84fc 6f3e
00000290: 7b3f 143f 7d68 26bf ffef 333f a0fb b9be
000002a0: 09ca 28bf 44c0 2bbf 92a0 25bf 1123 bb3e
000002b0: 31a8 97be 33fb 25bf 43f5 1cbf 26fe 49bf
000002c0: 0bda 183f 7f7e e2be 3dfb 26bf bbd8 433f
000002d0: e357 253f 9589 303f bd0a 2dbf baa5 bcbe
000002e0: b999 1a3f a7ed 1bbf 8c9b c83e a1b3 153f
000002f0: ff4d 133f ff25 2a3f a3bd 2fbf d976 24bf
00000300: dbb6 263f 172a 16bf eba8 673e 9f2e 293f
00000310: 6c59 42be d79b 143f 010f 243f b991 26bf
00000320: b71c 2fbf 7720 f43e 791b 3cbf c8af 12bf
00000330: ed8c 2cbf 25a0 13bf 3185 243f b71c 21bf
00000340: a354 2dbf 6f25 2e3f 6976 3a3e 627c 8dbe
00000350: 72ca 123f a641 273f d8ff 0ebf 9d4c 263f
00000360: 33f5 2dbf 2fb0 2c3f 4b22 abbe ce81 213f
00000370: 5b9c 263f 2ceb 36bf 2dd6 1cbf 8f62 16bf
00000380: 65af 28bf 01b4 17bf c13a 2bbf d4a9 753e
00000390: b391 16bf 3b19 13bf 4ced 713f 7ed1 5e3e
000003a0: 2f64 1cbf 79b5 1dbf c549 283f 73c8 2bbf
000003b0: 59ba 2fbf 7714 1cbf bb07 21bf c05b e03e
000003c0: 89ed 2fbf 6579 293f 2c18 0c3f e3ec 213f
000003d0: 019f 203f ed2b 22bf 584e 93be b0bd 253f
000003e0: 6f29 20bf e951 21bf b508 2cbf 7e54 bb3e
000003f0: 6d36 203e 7776 123f 3505 1a3f 1d5d 643e
-0.5128963 -0.5818775 -0.55779237 -0.69577414 0.6115623 -0.67388326 -0.67585474 0.6453416
-0.45253947 -0.69426256 0.65048975 -0.608321 0.68480605 -1.2081199 -0.65663093 -0.6389175
0.6589115 -0.48696545 0.69429165 0.6301896 -0.59306806 -0.46853352 0.59752125 0.6587785
0.66500455 0.61060375 -0.67441756 0.04649822 -0.77692956 -0.6480959 0.691101 -0.6910282
-0.33359906 -0.6809476 0.6494526 0.68234974 -0.8995939 -0.57430047 0.65550596 0.29707474
-0.67439884 1.027718 0.5837762 -0.64903015 0.3901712 -0.53864735 0.5781397 -0.6487021
-0.68944544 -0.6939319 -0.60950273 0.6851892 -0.59702855 -0.64512795 -0.6766761 0.6636041
0.63370734 0.61185724 0.66140336 0.66479045 0.587887 0.6701445 0.046994407 0.6939936
0.61788434 -0.67419034 0.6201264 -0.68386537 0.6561287 -0.5837197 0.20968427 0.6349843
0.6591211 -0.58591706 0.22099583 -0.67568797 0.6347607 0.5170319 -0.609641 -0.6029338
-0.67164725 -0.6870423 -0.6539852 0.43482777 -0.3625141 0.67146033 0.641486 0.6557496
-0.615838 -0.43136826 -0.02896374 -0.6780247 -0.66410154 -0.6212124 0.6691713 -0.63013977
0.5756225 0.15937982 0.5830599 0.6073033 -0.6129312 0.13173254 0.068451084 -0.61414033
0.6884758 -0.5835367 -0.5037363 0.6463117 -0.55819696 0.69046795 -0.6572215 -0.63223654
-0.60786533 0.11576402 -0.6927007 0.5740989 -0.66025114 0.6937314 0.43932956 0.7238669
0.6292228 -0.60511416 -0.6636241 0.06400001 -0.6501457 -1.0207108 0.64595294 0.6951003
-0.6959266 0.6723612 0.619827 0.64307064 -0.5982385 -0.6635942 0.33949944 -0.6673129
1.0848815 0.6654672 -0.64112085 0.66188294 -0.48233274 -0.5751105 -0.6554945 -0.6812162
0.6559009 -0.6344237 0.32710287 -0.57474494 0.7036024 -0.8631968 0.6002708 0.61117154
1.068625 -0.67201024 0.6177567 0.33271682 0.6460312 0.42423192 -0.7247778 -0.6233074
-0.6115574 0.5896824 -0.09395159 0.23436171 0.57909364 -0.65003186 0.7028808 -0.36324787
-0.6593328 -0.6709025 -0.64698136 0.3655019 -0.29620507 -0.64836425 -0.6131174 -0.78903425
0.5970771 -0.44237134 -0.6522711 0.7650258 0.6458723 0.68959934 -0.6759451 -0.3684519
0.6039081 -0.60909504 0.39181173 0.58477217 0.5754089 0.6646423 -0.6864874 -0.6424385
0.65122765 -0.58657974 0.22623031 0.66086763 -0.18979424 0.5805029 0.64085394 -0.65066105
-0.6840319 0.4768102 -0.7347942 -0.5729947 -0.67402536 -0.57666236 0.64265734 -0.6293444
-0.6770727 0.6802587 0.18209232 -0.2763396 0.5734016 0.65334547 -0.55859137 0.6496065
-0.6795227 0.67456335 -0.334246 0.6308869 0.6508233 -0.71452594 -0.61264306 -0.5874414
-0.6589263 -0.5925904 -0.66886526 0.23990566 -0.5881607 -0.57460374 0.9450271 0.21759602
-0.6109037 -0.6160503 0.65737563 -0.67102736 -0.6864372 -0.60968727 -0.6290242 0.4382
-0.68721825 0.6620086 0.54724383 0.63252085 0.6274262 -0.63348275 -0.2877071 0.64742565
-0.6256322 -0.6301561 -0.67200786 0.365879 0.15645762 0.57212013 0.60164195 0.22301145

main.2.bias f4 [12]
00000000: b9fe 153f 7c00 a03d 483a c83d 6a1b 923d
00000010: 26ea 03bd 8371 0d3d 4fb2 a13d 96dd c7bc
00000020: 1b54 6dbd b175 a43e 448d 07bc 147a 8ebc
0.585918 0.078125924 0.09776741 0.07134135 -0.032205723 0.03453208 0.07895338 -0.024397653
-0.057941537 0.3212104 -0.008273426 -0.017392196
